mnist-logistic.pth (torch, 32962 bytes, 2 tensors)

linear.weight f4 [10, 784]
000000 61 78 b9 bc 33 37 1d bc d5 57 be 3c a5 32 f2 3b
       -0.022640409 -0.00959568 0.023235241 0.007391291
000010 33 75 d0 bc a7 ae 99 bc 65 30 a3 3b 93 76 33 3b
       -0.02544651 -0.018760039 0.0049801343 0.0027383908
000020 cc be e7 3c e5 86 df 3b 41 60 4f bc 80 0c 84 bb
       0.028289221 0.0068215006 -0.012657226 -0.0040298104
000030 71 67 c8 3c 05 ac 99 3c a9 a7 99 3c 65 55 40 bc
       0.024463387 0.018758783 0.018756704 -0.01173911
000040 80 28 9e 3c 13 e1 0f 3c 0a c9 51 bc 41 3f cd 3c
       0.019306421 0.008781689 -0.012804279 0.025054576
000050 2e 60 37 3c e7 62 db 3c 0c c0 c4 bc 4c d3 f8 bc
       0.011192365 0.026780559 -0.024017356 -0.030374192
000060 a3 c4 e7 3c c1 1a 57 3c 4a 92 e4 bc 17 8f 0c 3d
       0.028292006 0.013128937 -0.027901787 0.03431615
000070 b7 41 16 ba 35 ca b6 3c 08 da fc bc 4e 75 59 3c
       -0.0005731838 0.022313217 -0.030865684 0.0132725965
000080 c2 af b4 3c b0 8a 10 bd a8 95 06 bc 67 f4 30 3b
       0.022056464 -0.035288513 -0.008214392 0.0027001144
000090 67 72 da 3c fb 30 28 bc 49 bc 6a bc 25 be 10 3d
       0.02666588 -0.010265584 -0.014327117 0.035337586
0000a0 bc e6 ce 3c 21 81 83 3c 08 23 90 bb 4e 03 a6 bc
       0.025256507 0.016052784 -0.0043987073 -0.020265248
0000b0 92 21 43 bc 57 f9 57 3c 5b fe 7a 3c 83 aa 54 bc
       -0.011909859 0.013182006 0.015319432 -0.012980106
0000c0 88 58 73 bc 5a 45 d5 bc 8a 31 ac bc 76 ae 60 bc
       -0.01485265 -0.026034046 -0.021019716 -0.01371347
0000d0 6e 4c e1 3c 5c 50 89 bb dc b2 83 3c 85 d9 e2 3c
       0.027502265 -0.004190488 0.016076498 0.027691612
0000e0 ca e2 92 bb 6e f9 9a 3b 7f ef 42 3c 90 b5 49 bb
       -0.004482602 0.0047294414 0.011897921 -0.0030778386
0000f0 0d 74 e9 bb 97 a4 ee 3c af 67 cb 3c f0 96 ad bb
       -0.00712443 0.029131217 0.024829714 -0.005297534
000100 61 7f 0c 3c de bb 10 bd 6a 10 dc 3c 48 ce 1b bd
       0.008575291 -0.035335414 0.026863296 -0.038038522
000110 d6 f0 bc b8 b1 1f 8f bc a1 15 88 3c 70 79 4d 3c
       -9.009398e-05 -0.017471166 0.016611876 0.01254116
000120 59 25 9d 3a 9f f5 a0 bc c0 e6 b1 3c 1c 15 ec 3c
       0.001198928 -0.019648371 0.021716475 0.02881866
000130 cb c4 04 bd 30 23 4b bc fb b9 3d bc 45 cb 09 bd
       -0.03241424 -0.012398526 -0.011579986 -0.03364112
000140 a0 96 c4 bc 96 de c8 bc 35 7b d1 bc 9a df 8f 3c
       -0.023997605 -0.0245202 -0.025571445 0.017562676
000150 13 7e 1a bb 04 45 0f 3d aa ac b6 3c 7a f8 d9 3c
       -0.0023573681 0.034977928 0.02229913 0.02660774
000160 95 f9 d1 bb 29 d0 04 bd c0 fa f6 bb e1 c0 da bc
       -0.0064079263 -0.03242508 -0.007537216 -0.0267033
000170 02 51 ca bc 29 99 21 3c 4f 07 6d 3c 47 12 a4 3b
       -0.02469683 0.009863176 0.014467075 0.0050070616
000180 61 92 fa bc ea f8 5a bb 38 fb 1c ba 0d 53 1e 3c
       -0.030587377 -0.0033412524 -0.0005988362 0.009663356
000190 17 0d 31 bd cb 9f 21 bd 4c f2 03 bd c5 23 54 3a
       -0.043225374 -0.03945903 -0.032213494 0.0008092488
0001a0 fe a8 0a bd 9e 6e 85 3c 9d ce d4 bc fd 2d 2c 3c
       -0.03385257 0.016288098 -0.025977427 0.010509011
0001b0 34 14 9c 3c 36 0f 27 3c 21 e9 c6 3a ce 86 55 bc
       0.019052602 0.010196498 0.0015175679 -0.013032628
0001c0 5e 83 af 3c 70 a4 0c bd 21 88 b7 3c 00 1e ea 39
       0.021424945 -0.034336507 0.022403779 0.0004465431
0001d0 72 72 53 bc 33 a8 68 bc 1b a3 9c bc ac e2 1f bd
       -0.012905704 -0.014200258 -0.019120743 -0.03903453
0001e0 7e bb cb bc b6 d1 0b 3c a2 67 14 bd e9 5a c9 bc
       -0.024869677 0.008533886 -0.036231644 -0.024579482
0001f0 37 b9 88 3c 9c 51 0d bd 56 2f 14 3b a6 c1 19 bb
       0.01668988 -0.034501657 0.0022611222 -0.002346137
000200 7f c8 a8 3b 64 4d 3f bc 05 3d 1b bb b5 72 bf bc
       0.005150854 -0.011676166 -0.0023687494 -0.023370126
000210 a9 7b 0e bd 1c 8b 26 bd 3f ca 05 bd e9 99 e1 ba
       -0.0347859 -0.04066001 -0.03266358 -0.0017212006
000220 7e 00 d9 3c ca 55 ba bc 11 7f 3b bc 18 38 48 bc
       0.026489493 -0.022745986 -0.011443869 -0.012220405
000230 53 32 8e 3b 33 f4 02 bd 75 84 8e bc f3 15 11 bc
       0.004339495 -0.031971168 -0.017397145 -0.008855331
000240 88 16 84 3c bd b0 01 3b 2f ec 17 bd 2c 16 99 bc
       0.016124025 0.0019789182 -0.037090477 -0.01868733
000250 58 37 1a bd 61 fb 34 bd 19 e9 f2 bc c3 11 4a 3c
       -0.037650436 -0.044185046 -0.029652165 0.012333336
000260 29 ed 59 3b 27 42 0d 3d 3b 62 d8 3c 7b 24 1b 3d
       0.003325293 0.034486916 0.026414027 0.037876587
000270 21 1e b0 3d 1e cf 7e 3d c6 5e 87 3d 35 91 43 3c
       0.08599497 0.06220924 0.066098735 0.0119364755
000280 1c fc c7 3c bf f7 fb bb 29 12 3f bc c2 1f ec bb
       0.024412207 -0.0076894457 -0.011662045 -0.0072059343
000290 e2 b8 3b bd c0 b7 d1 bc 0d f3 07 bd e8 e8 07 bc
       -0.045830615 -0.025600314 -0.033190776 -0.008295275
0002a0 56 07 0a bd 18 12 c6 bc 48 75 50 3c aa d6 82 bc
       -0.033698402 -0.02417855 0.0127232745 -0.0159715
0002b0 9b 42 0c bd e4 73 bd bc 42 1f 40 bd d7 79 22 bd
       -0.034243207 -0.02312655 -0.04690481 -0.039666977
0002c0 14 73 58 bd d0 63 5e bd 08 15 65 bd 00 ba c7 3b
       -0.052844122 -0.054294407 -0.05592826 0.006095171
0002d0 d7 f0 f7 3c 52 99 cc 3c 07 91 a7 3c 28 3e c9 3d
       0.030266209 0.024975453 0.020454897 0.098263085
0002e0 9c c6 5e 3d 55 fe 73 3d c6 16 7f 3d df ca 85 3d
       0.054388627 0.05956872 0.062277578 0.06532835
0002f0 64 23 1e 3c 97 13 18 3d 98 52 b1 bc ae 65 11 bd
       0.0096519925 0.037128057 -0.02164583 -0.03549736
000300 04 4c 95 bb d0 04 04 bd 0d bc c4 3c c5 9d ea 3c
       -0.004556181 -0.032231152 0.02401545 0.028639683
000310 ef 7c fe bb e4 14 57 3c ba 21 08 bd b8 71 8a bc
       -0.007766358 0.013127539 -0.03323529 -0.016899928
000320 bf f6 f6 bb 63 dd 15 bd ac e6 32 bb fd fc 83 bd
       -0.0075367386 -0.036588084 -0.0027298136 -0.06444738
000330 98 62 42 bc 57 33 24 bd 04 0c 68 3c b0 46 02 bc
       -0.011864327 -0.040088024 0.014163021 -0.0079514235
000340 0e d3 e1 3c 2c d1 cb 3c b6 0b 67 3d 4c 9d 89 3d
       0.027566459 0.024880014 0.056407653 0.06719455
000350 67 19 6b 3d 97 3d e0 3d 05 5a c8 3d 74 8c 3f 3d
       0.057397272 0.10949247 0.09782795 0.046764806
000360 12 29 58 3c ae 79 8b bb 81 b6 32 bc 04 a2 34 3c
       0.013193386 -0.0042564487 -0.01090777 0.011024956
000370 15 44 27 bd dc 97 38 bd e5 7a 3d bc 55 a9 03 3c
       -0.040836412 -0.0450667 -0.011564945 0.008035977
000380 92 c6 90 3c 39 f0 eb 3c 02 d5 d0 3b 3e 7e 76 bc
       0.01767281 0.02880107 0.0063730488 -0.015044747
000390 c6 b2 bc bc 40 41 80 bb 39 05 bd b9 a7 b2 28 bd
       -0.023034465 -0.0039140284 -0.0003605278 -0.041186
0003a0 08 80 67 bd 98 28 03 bd f7 96 1c bd 15 24 d6 ba
       -0.056518584 -0.032021135 -0.03822991 -0.0016337658
0003b0 a3 bb eb 3c 9f ec 2c 3d 09 e1 92 3d e9 4b 87 3d
       0.028775996 0.042217847 0.07171828 0.066062756
0003c0 6e 22 23 3d 56 4d 80 3d 2b 73 ef 3d c8 b2 ce 3d
       0.039827757 0.06264751 0.116918884 0.100926936
0003d0 1b 53 a7 3d e7 00 43 3d e3 cd 0f 3d cf f8 d9 3c
       0.08170148 0.047608282 0.03510846 0.026607899
0003e0 d4 82 ee bb c9 2e 5e bc 03 5e c2 3c 52 46 8f ba
       -0.0072787795 -0.013560959 0.023726469 -0.0010930991
0003f0 f8 79 96 3c bd 2f cb 3b 0f 4e 51 bc d0 57 14 3c
       0.018368706 0.006200759 -0.012774958 0.009054139

linear.bias f4 [10]
000000 52 4a 9a bd f2 0b 2d 3e 8a a4 5d bd 76 7e a3 bd
       -0.07533707 0.16899088 -0.054111995 -0.07983105
000010 61 1f 07 3d d3 33 e5 3d 5c 2e 06 bd bf 62 9e 3d
       0.03298891 0.11191525 -0.032759055 0.07733678
000020 84 00 49 be c2 13 36 39
       -0.19629103 0.00017364233
